SAGP_implementation/latest.pth (torch_old, 320926 bytes, 15 tensors)

conv1.weight f4 [37, 128]
00000000: e8cd f43d 025e 853d 81a8 95bb 1fb7 a13d
00000010: 1c86 fcbd 165d a3bc f958 283d ec8e a7bb
00000020: 983d 283e 537c 66bb 23d1 08bd ee5b a5be
00000030: d5ea b93c 2fa8 7f3e cc3c 88bd ea6f 0fbe
00000040: 28ca fa3d 5d87 a23d 06d4 eebc 8990 4ebe
00000050: e9a8 943d 69bd d9bd 1c6d 9c3d 2ea8 9f3d
00000060: 6a81 7dbe 15e9 88bc c72b 5e3e d975 58bd
00000070: f277 493e 7aa6 79be 4c57 1dbe fe0e 623e
00000080: dee8 473e eec2 193e aafd 5b3e 2ba5 8cbe
00000090: 4537 e93d 83b7 053e de80 c83c 1a74 943d
000000a0: 9e23 8cbd 8799 b33d 5fbf a3bc 621a d1bb
000000b0: 54cf 1abe 9900 6e3e ec77 2a3e a152 283e
000000c0: 7693 c53d ad24 c73d 5a0e a2be ebd6 97bd
000000d0: b23d d3bd a8bc 3e3e 51f0 14be e11f 8d3e
000000e0: e036 4d3e 53bf 053e 90dc 783e b8be eb3c
000000f0: 3dbb 6a3e 3bd6 72be c3f9 713d ecdb 30be
00000100: 336c 0f3e 7fbf 66be 7326 d63c 988a 14bd
00000110: 3077 d1be bef5 243d 216e e83d 7706 643e
00000120: 75e6 9dbe 2dd6 383e 3041 17bf f6d2 bc3d
00000130: 2300 8e3c c3cb 193c 1500 5c3d 54d4 5d3d
00000140: f0cb 943e d4df b73d 5538 6f3d cca8 483c
00000150: d533 2a3e b77f bd3a 3e05 d7be 467c de3d
00000160: 9a70 303e 67f2 e3be 9ea8 6a3c 1370 cd3d
00000170: 4602 323e ab53 55be 78a0 a73d 2df3 aa3c
00000180: 7f0a 613e 3c51 0d3e e554 663e 22eb f13d
00000190: 92e5 adbe 800b 263e b6ec 2e3e 14a6 b6bc
000001a0: a124 233e 2daa e33d e94b 2ebe 7716 8abe
000001b0: 1c9b 993d 564a 873e 753f 683d 2400 adbb
000001c0: bbc9 04bd 6623 22be 2dd7 163d 2f62 08bd
000001d0: 2532 333d 604f 733e 6b17 e63d 6b43 603d
000001e0: dea3 71be d556 cd3d 9e9d 623e 4a9e 683d
000001f0: c2f5 383e 422d b23e 9575 fb3d 2dd8 2c3e
00000200: ab05 52bd 200e 06bd 9f50 27bd e552 d93d
00000210: 7971 f53d c1cf 58bd d635 5a3d e054 953c
00000220: b95e 2a3e 7a1c 473d c8f2 093d f542 a1be
00000230: 17cc d83c bd51 14bd e583 a2bd 14a9 d03d
00000240: b1e0 183e c4c8 143e 6e6a a33d fd15 763e
00000250: 5b9e 403d 3713 60bd 5968 f03d 1fa4 97bd
00000260: 934a 4abd 69f8 8ebd 4802 b93d 78fe 303d
00000270: 5196 1dbd 2ae0 81be 4848 96bd 3677 633e
00000280: dbb6 823d 27ce 963c bb54 dcbe 165e fe3d
00000290: 36e9 023c 2b25 803d b27a 1b3d 1fe1 633e
000002a0: 73d2 91bc 018b db3d cbe3 6f3d da78 3c3e
000002b0: d8a9 4a3e 6c79 e6bc 9921 a3bb 446e 29be
000002c0: bb90 1a3e 5b41 273d 3068 9f3c a4e2 babd
000002d0: 1971 653d 54e6 aa3c c04c 623e 75c8 e4bd
000002e0: 2729 743d 9da9 1d3e 5190 4a3d 8ae0 193d
000002f0: 0bbe 37bd 835c 91be a999 0c3e 4e91 293e
00000300: 845e 80bd b7c1 953c a597 0cbe 08f8 143d
00000310: acf8 cdbe 6976 c93c 1b8b 023e 0619 173e
00000320: 1be5 a0be 295c 013b 579d d4bc 4451 c13c
00000330: 8692 d8bd 3324 613e d23d 283e 69e3 e5bd
00000340: 5a08 b83d cb17 b53d 54f3 d83c c84a e83c
00000350: 939a 923d ca22 bc3c f8ed d3be e2f9 cc3d
00000360: 10b8 743e ee22 d1be 5f33 c6bd a373 f63d
00000370: 33fe 0a3d 58fb 57be 1a5c 0b3e 8f44 203d
00000380: 3e94 1d3e 8d95 203e 5fdd c13d 110c 10bd
00000390: d5e0 b0be ee4e c73b 3d61 0ebe 0ed4 6a3e
000003a0: 88dd 2cbe 03d2 50bd c1cd 81bd 3e57 573e
000003b0: 607f 1a3e 33ef 4dbd df81 be3c fef3 373e
000003c0: 88b7 633d 629c f4bd 4299 e9bd 43e7 583d
000003d0: bed9 9c3d f3b7 b33d a3ff 9bbd 352f 803d
000003e0: e7f4 2c3e f5f1 fa3d f9f9 c53c ff6a 8abc
000003f0: 925b 1b3d 313b 073e af3f 6bbd 21b7 243e
0.11953336 0.06512071 -0.0045672064 0.07896256 -0.12330267 -0.019941848 0.041100476 -0.005113473
0.16429746 -0.0035169318 -0.033402573 -0.322967 0.022694984 0.249665 -0.06652221 -0.14007536
0.122455895 0.07935975 -0.029153835 -0.20172323 0.072587796 -0.1063183 0.076379985 0.077957496
-0.24756399 -0.016712705 0.21696387 -0.052846763 0.19674662 -0.24379912 -0.15365332 0.22076032
0.19522426 0.15015766 0.21483484 -0.27469763 0.11387495 0.13058285 0.024475511 0.07248707
-0.06842731 0.087695174 -0.019988714 -0.006381319 -0.15118152 0.23242415 0.16647309 0.1643777
0.096472666 0.09723792 -0.31651574 -0.07414039 -0.10314502 0.18626654 -0.14544798 0.27563384
0.20040464 0.13061266 0.24302888 0.028777465 0.22922988 -0.23714535 0.059076082 -0.17271394
0.14006118 -0.22533987 0.02614138 -0.036264986 -0.40911245 0.04027342 0.113491304 0.22268091
-0.30839887 0.18050452 -0.59083843 0.09219925 0.01733405 0.0093869595 0.053711016 0.05415757
0.29061842 0.08978239 0.05840333 0.012247276 0.16621335 0.0014457618 -0.41996187 0.10863547
0.17230454 -0.44520876 0.014322428 0.10031142 0.1738368 -0.20832698 0.08184904 0.020867908
0.2197666 0.1380052 0.22493322 0.11812426 -0.3396421 0.16215324 0.17082486 -0.02229599
0.15931942 0.11116443 -0.17021145 -0.26970264 0.07500288 0.264239 0.056701142 -0.005279558
-0.032418948 -0.15833816 0.0368263 -0.03329676 0.043748993 0.23760748 0.112349354 0.054751795
-0.23597667 0.100263275 0.22130439 0.05679158 0.18062499 0.34800154 0.12278286 0.1687934
-0.051274937 -0.032728314 -0.04084837 0.10611514 0.11984534 -0.052932505 0.053274 0.018228948
0.16637696 0.04861114 0.0336788 -0.31496397 0.026464505 -0.036210764 -0.07935313 0.10188499
0.14929463 0.14529711 0.07979284 0.24031825 0.04702602 -0.054705825 0.11738653 -0.074043505
-0.049387526 -0.06980974 0.09033638 0.04321143 -0.03847343 -0.25366336 -0.07338005 0.22213444
0.06382533 0.018408848 -0.43033394 0.12420289 0.007990172 0.06257089 0.03795881 0.22253846
-0.017800545 0.10719872 0.05856685 0.18405476 0.19791353 -0.02813407 -0.0049783704 -0.16545969
0.15094273 0.040833812 0.01945886 -0.091252595 0.05601606 0.020861782 0.2209959 -0.11171047
0.05960956 0.15396734 0.049454037 0.037567653 -0.044858973 -0.28390893 0.13730492 0.16559336
-0.062680274 0.018280847 -0.13729723 0.036369354 -0.40228784 0.024592595 0.12748377 0.1475564
-0.31424794 0.001973877 -0.025953932 0.02359832 -0.10574822 0.21986465 0.16429833 -0.11225016
0.08985968 0.08842429 0.026483215 0.028355971 0.07158389 0.022965807 -0.41392493 0.10008599
0.2389834 -0.40846962 -0.09677767 0.12033775 0.03393383 -0.21091974 0.13609353 0.039127883
0.15388581 0.15682049 0.09466051 -0.035167757 -0.34546533 0.006082407 -0.13904281 0.22932455
-0.16881382 -0.050981533 -0.063380726 0.21029374 0.15087652 -0.050276946 0.023255287 0.1796417
0.05559495 -0.1194389 -0.11406185 0.052954923 0.076587185 0.0877532 -0.07617118 0.06259004
0.16890298 0.12253181 0.024167048 -0.016896723 0.037929125 0.13206173 -0.05743378 0.16085483

conv1.bias f4 [128]
00000000: 3eaf 043d 42a9 7e3c ae6c 483d aebe ef3c
00000010: ace1 ae3b 9fc4 0ebd 13ac 753d 960b e83c
00000020: 3753 173d 1f48 933c 1db4 953c cacb 573d
00000030: 0515 733c d720 323d 8dfd bd3c 7afe fd3c
00000040: 7821 313d e532 873d c4a1 c53c 2b61 be3c
00000050: 780f 9f3d 2249 1c3d 9848 363c c3ce 953c
00000060: 9b83 413d 34e9 babc 3a87 bf3c adb4 f73c
00000070: 7886 de3c 783e 9f3d ef44 763c e778 623d
00000080: 242c 6e3c 5b9c 43bd 1101 8e3c 84c2 acbb
00000090: 3e12 8cba 866e e43c e5c6 9e3d 84b0 683c
000000a0: bc85 753c ec2f 613d bfe0 f23c 286b 8f3c
000000b0: 35c1 96bb b6ad d33b f955 233c e2d8 c43c
000000c0: 50c6 8e3c e292 0cbc 4411 283d afd1 a23b
000000d0: 1c76 233d 9cb2 333c 0d26 52bc e57d 143d
000000e0: 1708 27bd 5fca a03c 34ad 3c3c f793 ec3c
000000f0: e1b8 833c 7715 3e3d 7a34 753d 75a9 df3c
00000100: 3df9 a13c 5e35 6b3c 58bc 973c bb8c 35bc
00000110: 8c79 703d d9bf 473d 8171 9d3d e9cd 723c
00000120: c16c 913d d8c2 f1bc 2860 503d d27e e9bc
00000130: b013 6abb 1644 523d 72cc 403c 95ef ac3c
00000140: abaf 1f3d 9e5e 513c a383 773d 8b8e 1d3d
00000150: 4d81 bcbc 0127 733d f952 843d 5a2c 8939
00000160: d913 6d3d 481b 653c db02 b13c 2be8 8d3d
00000170: cac0 b73c 62f4 4a3d b341 c53c 75ee ce3c
00000180: 3003 3a3d 59db dd3c 82f5 8b3d 3089 b93c
00000190: 636b 893d 67bc 993c 0406 133c 9e97 2f3d
000001a0: 8cd5 ab3c df4e 203d b3c6 863d 94ca 2739
000001b0: 70ad 883c fb91 2a3d 1cb9 5cbd 6dfe 773d
000001c0: ae9b a43b 2b92 8b3c 889f 9f3c 49e4 183c
000001d0: ccfa 683d 9710 f33c c526 c33c 03f5 de3c
000001e0: b579 8139 1bb3 6f3d 9916 e6ba d19c 873c
000001f0: 9752 29bd f572 f73c e4d9 733c 859f 563d
0.032393686 0.015543284 0.04893177 0.029265728 0.005336961 -0.03485548 0.059978556 0.028325837
0.036944594 0.017978726 0.018274361 0.052684583 0.014836554 0.04348835 0.023192191 0.031005133
0.04324481 0.06601504 0.024124987 0.023239693 0.07766622 0.038155682 0.011125706 0.018287068
0.04724465 -0.022816278 0.02337991 0.03023752 0.02716373 0.07775587 0.0150310835 0.055291083
0.014536891 -0.047756534 0.017334493 -0.0052722115 -0.0010686589 0.027884733 0.0775278 0.014202241
0.014985498 0.054977342 0.029648183 0.01750715 -0.004600669 0.006459917 0.009969228 0.024029199
0.017428547 -0.0085799415 0.04103209 0.004968844 0.03990756 0.010967877 -0.012826455 0.036252875
-0.0407792 0.019627748 0.011515904 0.028879149 0.016079368 0.04640719 0.0598645 0.027302483
0.019772166 0.014355985 0.018522426 -0.011080916 0.058709666 0.048766945 0.07687665 0.014819601
0.07100821 -0.029511854 0.05087295 -0.028502855 -0.00357173 0.051334463 0.011767494 0.021110335
0.03898589 0.012778906 0.060428273 0.038466018 -0.023010874 0.05936337 0.06461138 0.0002616372
0.057880256 0.013983555 0.021607807 0.06929048 0.022430796 0.049549468 0.02407918 0.02526019
0.045413196 0.027082132 0.06833936 0.022648424 0.067099355 0.018766595 0.008973602 0.042869203
0.02097585 0.039137717 0.065808676 0.00016001827 0.016684264 0.041643124 -0.05388747 0.060545374
0.0050234413 0.017037472 0.01948525 0.009331771 0.056879804 0.029670997 0.023822198 0.02721644
0.00024695476 0.058520418 -0.0017554342 0.016554268 -0.04133853 0.030206183 0.014883492 0.052398223

pool1.score_layer.weight f4 [128, 1]
00000000: 83d1 52be 8452 babd cf8d c53d 492a 8f3e
00000010: df6e 05be f31b 32bd 4be8 613e 9889 ccbc
00000020: 29ce 01bb 3576 54be 3286 59be 7903 ad3e
00000030: 1bfd 473e 31f1 85bd 5af4 a23d a163 303e
00000040: 0146 4f3e 7401 a73e f022 22be a5b2 0ebe
00000050: 0165 853e b5b7 28be 9cde 343e e6fa e8bd
00000060: e3fa 353e e4b5 85be ea76 9e3c 8772 443e
00000070: 5e32 a4bd 3638 9d3e bc06 bd3d 3a4f 563e
00000080: eb1b f93d 9ba5 29be 8b26 49be a95a 223e
00000090: 00ce 0dbe 38e8 603d 2e2b 8c3e eae2 bfbc
000000a0: d21a ef3c cf53 4a3e 8041 a7bd 6684 3abe
000000b0: e50a 4e3e 7d40 0cbe ac4c 07be 7d89 fe3c
000000c0: 596b 513e c671 0fbe 923d 173e 927f b33d
000000d0: 207e d53d d0c5 d53d 4e18 6f3e 45a9 7cbd
000000e0: c6e8 31be 229c 0e3e 8d81 cdba 4409 983d
000000f0: c054 49be fc2e 943e e7bb 343e a742 a23d
00000100: 10e5 93bd 3dfc 4b3a e894 b4bc 67a8 fcbb
00000110: aaa8 ca3e 8c51 27bd f982 a13e e168 243e
00000120: 23d0 9d3e 5b2c 4bbe da00 ca3d 0ced 0cbe
00000130: 6d7b 34be 6847 183e d735 e3bc bcc8 4a3d
00000140: 740b 04bd ae5f 073e 871d 683e 82b9 dc3d
00000150: b545 a5be 70d6 25bd 3204 663e e076 98bd
00000160: cd92 ba3e 5ca6 863e 0794 763b 6379 4d3e
00000170: ff9b a83b b263 ca3e 2d2c 463e ac25 923d
00000180: d9f6 523d 4a9a 1c3e b92c 193e af28 883d
00000190: 7b0f 783e 6e80 163e 3634 1b3e 7bc5 213e
000001a0: 0c90 463d ee36 d8bd 7307 6ebd cdc9 853e
000001b0: 6cc6 113e 003c 53be ac8e 61be 8bbc 6c3d
000001c0: 88e9 4dbe 3e90 2d3e 60d8 2b3e 10ff a93c
000001d0: 9c95 943e 9f03 37bd 071b 57be 5810 823e
000001e0: 5083 593e 5f5b b43e daa6 983b c379 4abe
000001f0: 5c4f 75be a75a 0cbc 393e 103e 754d 9c3e
-0.20587735 -0.0909777 0.096461885 0.2796195 -0.13030575 -0.043483686 0.22061269 -0.024967954
-0.001980672 -0.20748217 -0.21242598 0.33791712 0.19530146 -0.06540144 0.079567626 0.17225505
0.20241548 0.32618296 -0.1583364 -0.13935335 0.26053622 -0.16476329 0.17663044 -0.1137598
0.17771487 -0.26115334 0.019343812 0.19184314 -0.08017419 0.30706948 0.092298 0.2092866
0.12163528 -0.1656708 -0.19643609 0.15854897 -0.13848114 0.05490896 0.27376693 -0.02342363
0.029187594 0.19758533 -0.0816679 -0.18214568 0.20121343 -0.13696475 -0.13212842 0.031071419
0.20451106 -0.14008245 0.14769581 0.087645665 0.10424447 0.1043812 0.23349115 -0.061684866
-0.17373952 0.13926747 -0.0015678868 0.07423642 -0.19661236 0.28942096 0.17649804 0.07922869
-0.072214246 0.0007781422 -0.02204366 -0.007710505 0.39581805 -0.040849254 0.31545237 0.16055633
0.30822858 -0.19841139 0.09863444 -0.13762301 -0.17625208 0.1487099 -0.027735634 0.04950784
-0.032237485 0.13220093 0.22667514 0.1077757 -0.32279745 -0.040487707 0.22462538 -0.074445486
0.36440125 0.26298797 0.0037624852 0.20065837 0.0051455493 0.39529186 0.19352789 0.071360916
0.051504944 0.15293232 0.14958467 0.06648385 0.24224655 0.1469743 0.15156636 0.15797989
0.048477218 -0.10557352 -0.058112573 0.26130524 0.14235848 -0.20628357 -0.22027081 0.057796996
-0.20108616 0.16949555 0.1678176 0.020751506 0.29020393 -0.044681188 -0.21006404 0.25403094
0.21241498 0.3522596 0.004658562 -0.19773011 -0.23956054 -0.008566535 0.14086236 0.30527845

conv2.weight f4 [128, 128]
00000000: ae06 d60d 6c20 953d 7a1d b912 fd42 b83d
00000010: 684b b53d fe96 dcbd f3a3 483d 847e 0804
00000020: 41c5 ff3c 8440 8d92 68a8 303d be29 8c01
00000030: 121b b03d 97d7 b9bc 5d0e 683d f30d 843d
00000040: 74f9 ac3d 5097 023d d4d2 cabb 30d6 5f3d
00000050: eade 13be b463 edbd 3b34 a6bd 01a4 a63d
00000060: adc3 29be 60a1 553b 1dc2 132b acec 1680
00000070: 383d 2ca9 1645 2bbe 224c 1ca8 babc ac3d
00000080: 80ab f08d 6939 39bc 11bc e43d 5da3 513d
00000090: 67f5 6d3d 443c 0300 29e3 843d abc2 0b00
000000a0: 8a4f c6bd 586b 243d c476 03a5 f103 ef9d
000000b0: 1d5f d13d 1dbe ab3d 7d18 823d 5a7d 903d
000000c0: 4888 661c 1a97 b83d e5aa c8bd 4098 c1bc
000000d0: 0b81 753d 0bad e23d 7d04 f93c 260a 7a3d
000000e0: 8eb4 8a02 78da 103d d702 6786 3c71 bd3d
000000f0: 1ef5 bc3d c742 afbc 6c0d 183d ee4f a030
00000100: 7084 9f3d b46b 3cbc 9fb5 803d 2306 0c37
00000110: 99c3 f23b a2fc d13c 9c3a 31be 02de 6f02
00000120: 9f9c 4c3c ac63 653b 8b11 01be 4ebd 233d
00000130: 1123 07be 4c11 9a3d 7742 a93d 1b3f 5b0f
00000140: 83b1 b33d 95db 653d 29fe 9f3d a039 983c
00000150: cc9c c53c 2368 323d 54f9 ca3d 7b96 1e2c
00000160: 7956 2faf 592d 0100 60aa 6b3d 06e1 823d
00000170: 9464 a83b 3f98 183d 2c38 e63c ae61 5baa
00000180: 55a8 9d3d 0700 aa3d 5e1e f8bd 86c1 253d
00000190: 68ed c5b9 363f a83d 4187 b83d 729d 1dbe
000001a0: 6dd2 b72a 6fc3 2a3d 797c dc28 a5cf 0d3d
000001b0: 0f2c a83b 565e 923c 515b 293d 7486 9e3b
000001c0: 54f1 f6bd 3763 d210 688f 2ba5 bfe1 0d3d
000001d0: 9cb9 3abc 22a3 c93d 2cb8 ab3d 8597 9a95
000001e0: edb7 693d 6670 f33c 4f4f 1e09 8ba2 4e3d
000001f0: c230 053d f6a6 d93d 27a3 37bb 81ac 913c
00000200: 5f2b 7320 fc15 213b 22a2 0480 e4ea 1f3c
00000210: a5c1 1b3d 3131 a6bd b07b 573d 5b86 f5ab
00000220: 997a 813c 94f4 95ac f83e 3b3c 17c2 b381
00000230: 56de c93c c9d5 44bc 35b3 203d fe9a 903c
00000240: c193 103d 9136 053d 7ec7 d6bc 5705 183d
00000250: d6a2 a4bd aab6 fabd c080 8cbd 059c 283d
00000260: 3ec3 0abe 52ae 5c3d cd56 329b db25 f10b
00000270: 771f 862a 93c9 14be 81f2 c380 c375 933d
00000280: 094d cf8c 8246 fcbc 8580 dd3d dc9e b53c
00000290: 17bf e13c 89d2 5ba7 641a 793d 10e6 7315
000002a0: d4d3 0fbe 38af 6a3d 4660 5331 0592 37b1
000002b0: 01eb 2f3a fabe 01bc 40ac 603d fe3d 4f3d
000002c0: 9a59 4fac 9e1b 0a3d e2a7 00be 05b1 9dbd
000002d0: e8a9 4ebb 5ced 6a3d 57bd 783d 1c6f c6bc
000002e0: 1d84 3e81 5a8d a73c 98f9 940b 2aa8 e0bb
000002f0: 732d 3d3d 50c8 603d 2c04 9f3d 701b 87b2
00000300: 549d b33d 9697 84bd d973 3e3d c20a 3336
00000310: 8dcf a03d 0a8e 743c 9a25 4fbe 4438 0100
00000320: 5b20 8f3d 07f1 28b9 1a32 89bd 2fbb 273d
00000330: 455f 17be 8ce7 b03d 1143 423d eff1 8790
00000340: 528c ef3b ed51 6d3c 8ac2 35bc efd6 9a3d
00000350: 9751 cebc 384b 113c 840a 983c b745 f329
00000360: 0cc9 bc05 c6cf 188e ab2d b13c bfe0 3e3d
00000370: ec02 0f3c 3113 82bc 2937 5d3d 5c98 900f
00000380: e31f 723d fd24 453d fda0 1ebe aecd e43c
00000390: 87a9 a83d 05dd 8f3d 90a6 2c3d 8641 50be
000003a0: f2dc b68e 2638 093e a2f8 bc0a a003 053d
000003b0: 057c 323c 38e0 043e db7b 2ebc f369 8d3c
000003c0: 596c dbbd 2c66 2ba4 629f b890 424b e23d
000003d0: 11ca a3bc 9d05 973d f986 5f3d aad8 2919
000003e0: 628d 063d 29b9 cbbc 44cc 03ac d7c2 053c
000003f0: 71eb 72bd b6ec 4a3d c6ff 18bc 78e1 193c
1.3190376e-30 0.072815746 1.1682408e-27 0.08997152 0.08852273 -0.10770987 0.04898448 1.6044816e-36
0.031221988 -8.914255e-28 0.043129355 5.1487775e-38 0.08598913 -0.022685809 0.056654323 0.06447973
0.08446017 0.031882584 -0.0061896835 0.054647624 -0.14440504 -0.115912825 -0.08115431 0.0813675
-0.1657855 0.0032597408 5.249428e-13 -2.105283e-39 -3.824477e-14 -0.16725573 -8.676248e-15 0.08434434
-1.4832429e-30 -0.011305192 0.11168683 0.051181186 0.058095362 2.97126e-40 0.0648864 1.080024e-39
-0.096831396 0.040141433 -1.1402678e-16 -6.326685e-21 0.102232195 0.083858706 0.06352327 0.07055159
7.6276756e-22 0.09013195 -0.097982205 -0.023632169 0.059937518 0.110681616 0.030397648 0.061044835
2.038091e-37 0.035364598 -4.3448358e-35 0.09250113 0.0922644 -0.021394147 0.037122175 1.166425e-09
0.07788932 -0.011500288 0.062846415 8.346079e-06 0.007408571 0.02563316 -0.17307514 1.762266e-37
0.012488513 0.0035002036 -0.12604348 0.039975457 -0.1319697 0.0752283 0.0826463 1.0809687e-29
0.08774092 0.056117613 0.07812149 0.018582165 0.024122618 0.043556344 0.09910837 2.2536684e-12
-1.5946879e-10 1.08103e-40 0.05753553 0.06390576 0.005138943 0.03725457 0.028102957 -1.9484997e-13
0.076981224 0.083007865 -0.12115167 0.04046776 -0.0003775165 0.082151815 0.09010173 -0.15392092
3.2653342e-13 0.041690286 2.4478888e-14 0.034621853 0.0051322053 0.017867249 0.04134685 0.0048378054
-0.120577484 8.298326e-29 -1.4880474e-16 0.034639116 -0.011396792 0.09845568 0.08384737 -6.243916e-26
0.05706017 0.029716682 1.9055849e-33 0.05044798 0.032517202 0.106275484 -0.002802083 0.017782452
2.0597251e-19 0.0024579754 -4.25504e-40 0.009760592 0.03802647 -0.08114851 0.052608192 -1.7445588e-12
0.01580553 -4.2619883e-12 0.011428587 -6.603272e-38 0.02464215 -0.012013861 0.039233405 0.017652031
0.03529716 0.03252274 -0.026218172 0.037114467 -0.08038871 -0.12241872 -0.068604946 0.041164417
-0.13551041 0.053877182 -1.4751862e-22 9.288678e-32 2.3825015e-13 -0.1453002 -1.7994916e-38 0.07200196
-3.1939764e-31 -0.03079534 0.10815529 0.022170477 0.027556939 -3.0506487e-15 0.060816184 4.9254947e-26
-0.1404565 0.057296008 3.0759266e-09 -2.6713007e-09 0.00067107385 -0.0079190675 0.05485177 0.05059623
-2.9466208e-12 0.033717744 -0.12564042 -0.076997794 -0.0031534377 0.05735527 0.060727444 -0.024222903
-3.4992275e-38 0.020453144 5.7383073e-32 -0.006855984 0.046185922 0.054878533 0.077644676 -1.5728546e-08
0.08770242 -0.06474225 0.0464972 2.667934e-06 0.07852087 0.014926443 -0.20229188 1.1202e-40
0.06988593 -0.00016111518 -0.06699009 0.040949997 -0.14782436 0.08637914 0.04742724 -5.362087e-29
0.0073104287 0.014484865 -0.011093745 0.075605266 -0.02518539 0.008868031 0.018559702 1.08034614e-13
1.7753288e-35 -1.8835486e-30 0.021628221 0.046601053 0.008728724 -0.015878292 0.054007683 1.4258183e-29
0.05911244 0.048130978 -0.154911 0.027930107 0.0823546 0.07024578 0.042151034 -0.20337495
-4.5079227e-30 0.13400325 1.8197267e-32 0.03247416 0.010893826 0.12976158 -0.010649647 0.017262435
-0.10714025 -3.7166257e-17 -7.282077e-29 0.110495105 -0.019993814 0.073741175 0.05457208 8.78085e-24
0.032849677 -0.024868565 -1.872961e-12 0.008164129 -0.059306566 0.04954215 -0.009338325 0.009392135

conv2.bias f4 [128]
00000000: 2bdb c9bc 8615 a33d cddd 46b2 71c8 1b3c
00000010: 168f 113d 7154 833d e4df 613d dfbf 83bb
00000020: 16ad 8f3c 6610 d2b9 eb1c 1abd da6e 85ba
00000030: c16c 25bc 02ea 49bd 6319 c83c bad6 d53c
00000040: 90a5 053d 82d3 9b3d ac23 fb3c 3cb0 283d
00000050: 5143 703d be43 5d3d d3f7 90bd b4fe 583b
00000060: f2ce 913d b5b4 4c3c 827c 3fbb 58b0 68b0
00000070: 35ee 92bc a789 863d 64b7 0bbb 3224 7e3d
00000080: df97 9fba 76c1 e639 8ccf 2a3d 8ea8 a73c
00000090: 7091 943d f4c1 b4b9 a079 063d 7a12 11ba
000000a0: 66a9 3a3d 4bea 97bc 0b4c 85bb dae1 50bb
000000b0: 54bd f23c 7cf6 193c bcd2 b5bb bf4e 613d
000000c0: dc4b adb3 28e7 c739 2c31 413d 344e bebd
000000d0: 37d8 913d 98ee fbbb 9cd3 9fbb 74db ee3c
000000e0: 19a0 8ab8 1414 1d3d 7750 90b9 d1d0 363c
000000f0: 0680 0f3c 9a43 49bd 8ff1 82bb 55c2 75bb
00000100: f0fc 693c f69e fe3c bcb6 8e3d 3ae1 cbbc
00000110: 906d 5e3d e92d 66bd cd7c ab3d 12b3 b7af
00000120: f897 883d 046c 43bd 27c3 6b3d d4f4 c43d
00000130: 187d 0f3d 490a b9bc 1d5c f23c db28 0bb8
00000140: 2aa0 2c3d 410d ad3d 9a58 483d b85f bbbc
00000150: 0cfb 8f3d 1049 3abd 0e6c e33c 28c4 36bc
00000160: 4703 c9b5 7126 1bb8 4614 823d 2164 423d
00000170: 084a b1bd fe64 b3bb 8f1c 85bc da18 17ba
00000180: 07fb f53c eaa3 a23c 93e0 663d 351d a6bb
00000190: 6ec8 973c b34a 2b3c 314b b63d b2da 9d3d
000001a0: 232e cbbb d685 6d3c b0b0 b9b7 277e aabb
000001b0: a05d 54bd 4d1d 8a3c c96f 56bd 18d0 72bd
000001c0: 6ef4 5e3d 4db3 d1b5 2a0f 3cb4 3564 d93c
000001d0: c2f1 4cbd 7991 4e3d f830 cd3d 668a e6af
000001e0: 5ad6 963b fe1b 423d 61ed adb8 b22e b9bb
000001f0: 1b73 bfbd 3cc0 aebb 6b01 11bd d18e ba3d
-0.02464064 0.0796309 -1.15755485e-08 0.009508238 0.035536848 0.0641259 0.05514516 -0.0040206756
0.017538588 -0.0004006654 -0.037625235 -0.0010180131 -0.01009673 -0.049295433 0.024426168 0.026103366
0.032628596 0.07608701 0.030656658 0.041183695 0.058657948 0.054019682 -0.07078519 0.00331108
0.0711955 0.012494256 -0.00292185 -8.465171e-10 -0.017935852 0.06569224 -0.0021319026 0.062046237
-0.0012175998 0.00044013158 0.04170184 0.020466115 0.072543025 -0.00034476782 0.032830834 -0.0005534064
0.045571707 -0.018544337 -0.004067903 -0.00318729 0.029631294 0.009397145 -0.005548803 0.05500674
-8.069739e-08 0.00038128463 0.047166035 -0.0929226 0.07121318 -0.0076883547 -0.0048775207 0.029157378
-6.610173e-05 0.038349226 -0.0002752577 0.011158184 0.0087585505 -0.049136735 -0.003996081 -0.0037499864
0.014281496 0.031081658 0.069684476 -0.02488767 0.054303706 -0.056196127 0.08373413 -3.3414743e-10
0.06669611 -0.047710434 0.05755916 0.0961701 0.035031408 -0.022587912 0.029584939 -3.3178232e-05
0.04214493 0.084497936 0.048912622 -0.02287279 0.07030305 -0.045479834 0.027761485 -0.011155166
-1.4976621e-06 -3.699068e-05 0.06351523 0.04745877 -0.086566985 -0.0054746857 -0.01624897 -0.0005763896
0.030026926 0.019853551 0.056366514 -0.0050693997 0.01852819 0.010454821 0.089010604 0.077077284
-0.0062005683 0.014497241 -2.2135995e-05 -0.005203027 -0.0518471 0.016859675 -0.0523527 -0.059280485
0.054432325 -1.5623897e-06 -1.7514381e-07 0.02653704 -0.050035246 0.050431702 0.10019106 -4.1935094e-10
0.0046031894 0.047389977 -8.293498e-05 -0.0056513185 -0.093481265 -0.0053329747 -0.035401743 0.09109271

pool2.score_layer.weight f4 [128, 1]
00000000: 2bb7 31b4 2443 9c3e da4b 2ab1 aca7 963d
00000010: 76ca 463e d663 833d c63a 583e 5f75 04b6
00000020: 3e47 0b3e a177 fbb4 c392 123e bbee 8595
00000030: 883b febc 7c69 3b3c 9311 ee3d c6bd 333e
00000040: 4423 633e 87f0 a33e c129 1a3e 8ec9 693e
00000050: bc9c 3fbd 934e 243e 6de1 4dbd e3df d73d
00000060: a95b 123e fa64 f53d c11f 8daf 5a11 3586
00000070: 08a9 01bc 6132 f03d 2a8b 01b0 20ca 893e
00000080: 428f 7380 ea0a 0e3d 8e24 593e a8eb 8d3e
00000090: b118 9c3e 3d08 0480 20c1 413e 49fa c3ae
000000a0: f766 873d fb0f 4bbd c350 e8ba 4b98 eab0
000000b0: f60e 863e f07f c63d 23e1 29bc d4fa 9d3e
000000c0: e592 daa2 a843 a53d 34c6 dcbc 1e5d cbbd
000000d0: 9e53 9a3e bc57 18bd 8a28 a13c 7ea1 713e
000000e0: 58b1 af19 3272 613e 4a17 19b4 5f35 e63d
000000f0: d9a5 cb3d 272c 453d 1f13 043c eda0 f9af
00000100: d4f7 f73d f761 163d 774b a23e da24 9abc
00000110: 3cbf 6c3e ae8d 853d 7d9f a73d 8df7 adb3
00000120: f392 9d3e 5f35 7ebd 3a19 6d3d 48c1 ad3e
00000130: 3163 063e bc0c 8c3d d438 403e e371 7c29
00000140: b559 5d3e cc62 9e3e a2df 8d3e e583 2f3d
00000150: 4b17 923e ddc5 f13c f80c 383e d379 11b8
00000160: ec9f 0194 b0f1 b6ab b580 823e de93 313e
00000170: d721 02bd bb07 463d 10ad 5d3d 1a47 b682
00000180: eb66 6a3e 5ac1 e93d 73cb c3bc df22 4e3d
00000190: ab39 1d3e 88d3 af3d 5d0e 943e aabe 2e3d
000001a0: 06c5 19b9 2f06 d93d f688 d1b2 7eb7 0d3e
000001b0: 3bd3 7d3d 2552 a43d 4de5 963c 0e47 603c
000001c0: dd19 1b3e 8097 ed2f 170d 6483 8030 2f3e
000001d0: 5dae 0fbe abb3 1e3e 3ffe a43e 8a25 a7ad
000001e0: fb2e 9a3d f16d 993e e60e 45b2 e8a4 893d
000001f0: d85b c9bd c147 18bd 8f74 17bd e916 653e
-1.6551046e-07 0.30519974 -2.4781373e-09 0.073561996 0.1941317 0.064155266 0.2111617 -1.9737852e-06
0.13601395 -4.6839435e-07 0.14313798 -5.409492e-26 -0.031034246 0.011438724 0.11624446 0.17552862
0.22181422 0.32019445 0.1505499 0.22830793 -0.046780333 0.16045599 -0.05026381 0.1054075
0.14292778 0.119821504 -2.5670313e-10 -3.4055064e-35 -0.007913835 0.11728359 -4.712769e-10 0.26912022
-1.0612473e-38 0.034678377 0.21205351 0.27718854 0.30487588 -3.70297e-40 0.18921328 -8.912033e-11
0.06611436 -0.049575787 -0.0017724264 -1.7069025e-09 0.2618329 0.09692371 -0.010368618 0.3085543
-5.924455e-18 0.08069545 -0.02694998 -0.0992987 0.3014192 -0.037193045 0.01967265 0.2359676
1.8166204e-23 0.22016218 -1.4257708e-07 0.112406485 0.09943742 0.04813781 0.008061199 -4.540718e-10
0.12107816 0.03671452 0.316982 -0.0188164 0.23119825 0.06521164 0.08184717 -8.1009695e-08
0.30776176 -0.062062617 0.057885386 0.33936524 0.13123776 0.068383664 0.18771678 5.605402e-14
0.21616252 0.3093475 0.2770968 0.042850394 0.28533396 0.029513294 0.17973697 -3.468415e-05
-6.544375e-27 -1.299896e-12 0.2548882 0.17341563 -0.031770553 0.048347216 0.054120123 -2.6783307e-37
0.22890823 0.11413832 -0.023900723 0.050326224 0.1535403 0.08585268 0.28917208 0.0426623
-0.00014664614 0.105968826 -2.4393085e-08 0.13839528 0.061969023 0.0802348 0.018419886 0.013688816
0.15146585 4.3217696e-10 -6.7018204e-37 0.17108345 -0.14031358 0.15498225 0.32225224 -1.9002373e-11
0.07528492 0.2996669 -1.1470297e-08 0.067209065 -0.09831971 -0.037177805 -0.036976393 0.22372021

conv3.weight f4 [128, 128]
00000000: 60a5 0f9c 39a0 f802 d53a 8e93 917c e38b
00000010: 9afc b486 ef69 aea9 72d9 e308 6048 aa84
00000020: 6dd6 4e20 bccf 8980 81a0 fe8d 325a 6201
00000030: 7462 5726 4142 9493 6177 0180 906a 1025
00000040: ae42 1e00 6bb6 29ab 8b9c 60aa dcd4 9506
00000050: 32d9 682e 44d0 3109 7cef af20 68d7 23a6
00000060: bd9d cf82 365e 0500 4a27 12a5 d0b6 8004
00000070: 461a 728e 3bdd d316 57a8 4c08 3f1d 0100
00000080: 527e 7ba9 2e82 80a1 051d 6c06 a9e1 0300
00000090: 98e6 de83 d71b 940d 42cc 9c22 8233 092c
000000a0: e82c 9e02 8976 2109 48a3 8c88 daae 0caf
000000b0: 83d0 b292 8536 220c 365c 4822 6a50 469f
000000c0: f36f 152d 6b6e 0088 3ffc 44a1 0f03 f595
000000d0: 8e95 f6ae 6a3f 620e b69d 5a2b b7cf 1013
000000e0: 789c eb0f 912b 0500 687c 0316 e122 fe01
000000f0: fe7c ad81 2974 0684 c8f5 6f8d 649b 119e
00000100: b123 a4ad 53ae 4faa e531 0180 3178 0100
00000110: d110 9a13 9d70 0080 f82d ab90 8ae1 9eab
00000120: 6f43 b71c c095 2dab 2f76 001d 39fe cf93
00000130: 8f02 0b80 b425 a80b 4547 0594 f663 44a4
00000140: 68cd a217 81a1 ae9c 8155 9b2e ab96 f003
00000150: c52a 268e 2422 25ad 1539 1103 8b1c 9fab
00000160: f742 05a2 2e7c 8809 0bcf cb8a 4677 558d
00000170: 6321 6409 5816 85a5 9c79 9c2a 13bc a413
00000180: 6a4a 0800 ab55 e797 47e7 0280 eebc 0f00
00000190: af34 5d23 f124 35a9 4383 458d b914 109f
000001a0: 3d36 8600 5806 ac80 fdea 9f14 f6c3 898b
000001b0: edbf 3b9c 8650 c7a9 9a9a 3a0c 6046 030b
000001c0: f22c 2025 81c7 3081 4ad3 8f04 4d67 222d
000001d0: 0eba 0a96 4bac e22b 2355 3880 b017 050e
000001e0: db3e a6a0 a3aa 66ad 984e 988d 92a8 f18b
000001f0: c952 0428 bfcf cf82 2adb 9916 9cef 222b
00000200: d620 a13c 82ba e9ae e58e 06bb 9ee9 a23c
00000210: 2895 2cbc d38f 78bc 33b8 efbb 78f7 36ba
00000220: d0e4 8ebb 5f96 752e 34a4 223c 91c3 3194
00000230: a969 81b3 584c b3bc 1ccf 0d22 6974 14b6
00000240: 4cca ddaf b4bf f1bb cb6a 1ab0 2281 b539
00000250: 2c5e f73b 8ac2 11ba 9a60 b33c dbe1 a33c
00000260: 85b6 453c a3fc 153c b6c1 c0a2 6e42 0035
00000270: a608 87ba 35aa f43b 1c99 25b5 97df f1bb
00000280: c058 a7ba cc68 a73c 41bc 0bb7 dbf6 85b7
00000290: e073 c790 e16d 033d 2280 ddb8 7600 da2c
000002a0: 1ffc 10b2 c6a0 1e3c c99b 0c25 f619 3420
000002b0: e884 a1b8 64e0 b53d 773b 819e 6f0a 9734
000002c0: 4972 4681 a0f1 fc87 cbd8 643d 9e0e 6d3d
000002d0: bda4 8c3d 4c9d 993d 4b44 dcb4 0a9d 0d3c
000002e0: c898 93bc 6689 ac3c 16f6 ab3c dd76 bab4
000002f0: 8565 c12e 2383 dfb8 046e 3c3c 1562 4338
00000300: 096c 6534 ed03 ee3b 9ec0 9ea6 e68e 8a09
00000310: 05d0 acbb db7b eea2 1183 8b3d b6cd 563d
00000320: 9d41 3e3c 2719 06bc 1c3a 519a b5a1 9fbc
00000330: bf89 3a8c 4366 8333 4649 5b86 1f85 9a3d
00000340: 88ee fd3c b27f 8fba bdef b43d 283c 3a19
00000350: f07f 94bc cc08 1639 e5b0 9a2c 02df dd3c
00000360: b42e f2b8 f5da adb6 7d57 80bc 6ce0 fa37
00000370: f08a ba32 533b 0a3d 39a6 9aae 8d96 47b7
00000380: 6d55 d2af d9ec c318 4d24 88b6 d2c8 97ba
00000390: 4ed0 c33c 0926 1aa9 bc25 843d 0ac7 113b
000003a0: d937 352f 25b1 110c 5359 2e3d fa7d 1dba
000003b0: bb2c ee8b 57ef cabb cc02 933d b6e6 23ba
000003c0: 7525 6388 8419 8436 7cc6 3cbc 4985 4e12
000003d0: 251f c13c 3c66 64ae 1ffb 8a32 1465 4b3c
000003e0: 76ae 688f 96fa 26ba 26ed f13c 33ba 753d
000003f0: fba6 be3c 674c ce80 0e2a 2480 44a1 25b4
-4.7528473e-22 3.6532288e-37 -3.5903852e-27 -8.7624646e-32 -6.807964e-35 -7.745529e-14 1.3713187e-33 -4.0033274e-36
1.7519826e-19 -1.2655984e-38 -1.56925985e-30 4.1574356e-38 7.472654e-16 -3.7425784e-27 -1.3466e-40 1.2526114e-16
2.778985e-39 -6.0294017e-13 -1.9949508e-13 5.636034e-35 5.29436e-11 2.1403526e-33 2.980463e-19 -5.6843915e-16
-3.0506454e-37 4.92974e-40 -1.2676793e-16 3.0260542e-36 -2.9841453e-30 3.4228505e-25 6.15869e-34 1.02327e-40
-5.584276e-14 -8.708076e-19 4.4407987e-35 3.56458e-40 -1.3100929e-36 9.127906e-31 4.250015e-18 1.9497464e-12
2.3241788e-37 1.9435405e-33 -8.464331e-34 -1.2795046e-10 -1.1284781e-27 1.2496432e-31 2.715387e-18 -4.1994648e-20
8.494527e-12 -3.8648395e-34 -6.674123e-19 -9.895954e-26 -1.1213351e-10 2.7887183e-30 7.7668026e-13 1.8277767e-27
2.3233059e-29 4.74806e-40 1.0621351e-25 9.3354913e-38 -6.372952e-38 -1.5804962e-36 -7.394341e-31 -7.70837e-21
-1.8660492e-11 -1.8445774e-13 -1.09734e-40 1.34952e-40 3.8891648e-27 -4.0398e-41 -6.7518433e-29 -1.1289175e-12
1.2127355e-21 -6.1669767e-13 1.7001758e-21 -5.250483e-27 -1.011108e-39 6.4767975e-32 -6.7288395e-27 -4.2585395e-17
1.0520856e-24 -1.1556102e-21 7.0637725e-11 1.4140524e-36 -2.0481673e-30 -9.386745e-12 4.2677197e-37 -1.1305552e-12
-1.8060312e-18 3.2857587e-33 -1.962607e-32 -6.5779263e-31 2.74602e-33 -2.3086963e-16 2.779555e-13 4.1584876e-27
7.61379e-40 -1.4949651e-24 -2.66638e-40 1.445308e-39 1.199159e-17 -4.0222115e-14 -6.0863312e-31 -3.0510327e-20
1.2325414e-38 -1.5797981e-38 1.6147584e-26 -5.306533e-32 -6.212117e-22 -8.851344e-14 1.4375443e-31 2.5282627e-32
1.3893016e-16 -3.2469232e-38 3.3813177e-36 9.231571e-12 -1.120626e-25 1.6106087e-12 -5.173329e-39 1.640492e-30
-2.8163088e-19 -1.3111875e-11 -9.386644e-31 -9.308346e-32 7.345423e-15 -3.0535157e-37 2.4856795e-25 5.7886486e-13
0.019668978 -1.0628744e-10 -0.002053195 0.019886788 -0.0105336085 -0.015171009 -0.0073156594 -0.0006979625
-0.0043607727 5.5840107e-11 0.009926844 -8.974785e-27 -6.02625e-08 -0.02188699 1.9218706e-18 -2.2121478e-06
-4.0343406e-10 -0.007377589 -5.6176636e-10 0.00034619222 0.007549068 -0.00055602996 0.02189665 0.020005157
0.012067442 0.009154472 -5.2246804e-18 4.7780384e-07 -0.001030226 0.0074665793 -6.1690093e-07 -0.0073813903
-0.0012767538 0.020435713 -8.328877e-06 -1.5969787e-05 -7.8670194e-29 0.03208721 -0.00010561968 6.195984e-12
-8.439229e-09 0.009681886 1.2195846e-16 1.5255183e-19 -7.701834e-05 0.0888069 -1.3683e-20 2.8133533e-07
-3.6448852e-38 -3.805876e-34 0.055870812 0.05787527 0.06867359 0.07500705 -4.1027883e-07 0.008643398
-0.018017188 0.02106161 0.020991366 -3.4731684e-07 8.7946574e-11 -0.00010657895 0.011500839 4.658297e-05
2.136659e-07 0.0072636516 -1.1015661e-15 3.3356673e-33 -0.0052738213 -6.4641166e-18 0.06812108 0.052442275
0.011612323 -0.008184708 -4.3267127e-23 -0.019486288 -1.437037e-31 6.118764e-08 -4.1243155e-35 0.07544922
0.03099753 -0.001094809 0.08834789 9.628123e-24 -0.018127412 0.00014308392 4.3965825e-12 0.027083877
-0.00011548158 -5.1812917e-06 -0.015666718 2.9906827e-05 2.1716431e-08 0.033747982 -7.032636e-11 -1.1896377e-05
-3.8259476e-10 5.0645474e-24 -4.057342e-06 -0.0011580235 0.023903038 -3.422786e-14 0.0645251 0.002224388
1.6481695e-10 1.1223701e-31 0.042565655 -0.00060078467 -9.174157e-32 -0.0061930823 0.07178268 -0.0006252335
-6.835436e-34 3.936877e-06 -0.011521932 6.5166425e-28 0.023574421 -5.1932e-11 1.6179511e-08 0.012414236
-1.1472083e-29 -0.00063697377 0.029532026 0.059992027 0.023272982 -1.894552e-38 -3.321164e-39 -1.542549e-07

conv3.bias f4 [128]
00000000: 2547 56bb 5095 06bb a983 49bc 1a2b 70bb
00000010: 31cc bb3d 4ce9 b53d 2035 a0bb a96e 76bc
00000020: 1319 83bc 1544 05bb a610 2aba 6932 c0b4
00000030: 902b 78bb 67df a13c ea8c 3d07 d52d e033
00000040: 2647 a8ba 457b 54bc 8253 5abb 264b 0cb4
00000050: 2f58 2a3c bda0 babb 575b 063c 5760 ceba
00000060: 2770 cd3c a94d af3d 6a9f 40ba ed46 5dbb
00000070: 55c2 653c 4a82 e63b fe37 fdba 2eda 02bc
00000080: 9842 64bb 8e41 be3c d84e 2dbc a3ae a1ba
00000090: a84c efb0 49e5 203b 7121 a6bb 255e f9ae
000000a0: ec23 f4bb 7a39 033c 198e abb8 f463 c9b9
000000b0: 23e3 e8bb ecc9 673c b773 83ba ae80 cfba
000000c0: 05bc 82b7 b2de 37b3 9fe2 58bb 4f85 533a
000000d0: fb04 04bb becd 4abb c7d6 74ba 00a7 b9bb
000000e0: 2916 9b3d ac2b d43c 9d7b 26ba 16b3 40bb
000000f0: c4e3 64ba fdbb 4fbb adcd d7bb 5f90 c4bb
00000100: 8e33 14bb 0213 ed3c 15bc 22b9 ab6f abb8
00000110: e356 e5bb 28bf 11bb d04c 833a a7f0 973c
00000120: 7278 543d f001 863d 0a0b 87b7 46ad 3cbc
00000130: 2da6 2db6 3bc6 deba bfab 67b8 3fad 643c
00000140: fefe d33c 39c8 f6bb 361f a6ba 50f4 1fbb
00000150: fbdc 96ba 8c74 11bc 6230 a5b3 04be 8ebc
00000160: e358 13bb 0f08 b6bb 2ee5 953d 08d8 19bc
00000170: d792 27bb 1718 85bc 96bf d9b9 5161 f8ba
00000180: f9da d0ba 7290 0fba 2155 03bc d890 4a3a
00000190: dd00 003c dc72 70b8 9f90 52bc e5b4 763b
000001a0: 2ccd 70b8 cc4a 3db9 ad11 cb3a 91c6 00bc
000001b0: 2785 3ab5 e240 53bc e71f 553d 445a eabb
000001c0: dce4 9cb4 daac 41bb ba02 4e3d 8543 12b7
000001d0: 16df a3bc 0391 2480 db7a 01bb 4a10 cebb
000001e0: f3f7 83b7 fa78 0bbc 0a13 c43a b28a c9bb
000001f0: b351 7c3c e4e2 d5b5 da38 dfb5 6cc6 aebb
-0.0032696214 -0.0020535775 -0.012299457 -0.0036646784 0.09169806 0.088823885 -0.0048891455 -0.015041032
-0.016003167 -0.002033477 -0.0006487466 -3.5799465e-07 -0.0037867762 0.019759847 1.4260191e-34 1.04391496e-07
-0.0012838587 -0.012968843 -0.0033313935 -1.3065855e-07 0.010397001 -0.005695431 0.008200488 -0.0015745264
0.025077892 0.085597344 -0.00073479733 -0.00337642 0.014023383 0.0070345746 -0.0019319055 -0.007986588
-0.0034829732 0.023224618 -0.01057788 -0.0012335371 -1.7411326e-09 0.0024550727 -0.0050699045 -1.13399325e-10
-0.0074505713 0.008009309 -8.180383e-05 -0.00038412178 -0.007107155 0.014147263 -0.0010028993 -0.0015831196
-1.5584761e-05 -4.2810548e-08 -0.003309406 0.0008068876 -0.002014457 -0.0030945386 -0.00093398656 -0.00566566
0.07572586 0.02589973 -0.0006350817 -0.0029403619 -0.00087314495 -0.0031697743 -0.0065857978 -0.0059986557
-0.0022613737 0.028939728 -0.0001551959 -8.174715e-05 -0.006998883 -0.0022239182 0.0010017399 0.01854737
0.051872678 0.06543338 -1.6098395e-05 -0.011515921 -2.5875736e-06 -0.0016996333 -5.5234643e-05 0.013957321
0.025878426 -0.0075311926 -0.0012674097 -0.0024407096 -0.0011509949 -0.008877885 -7.692212e-08 -0.01742459
-0.00224834 -0.00555516 0.07319103 -0.009389885 -0.00255697 -0.016246838 -0.00041532208 -0.0018949901
-0.00159344 -0.0005476541 -0.008015902 0.0007727272 0.007812706 -5.732743e-05 -0.012851863 0.0037644443
-5.741154e-05 -0.00018052309 0.0015492939 -0.007859842 -6.948416e-07 -0.012893887 0.052032378 -0.007151874
-2.9223781e-07 -0.002955249 0.05029557 -8.717999e-06 -0.020003837 -3.358098e-39 -0.0019757065 -0.006288563
-1.5731877e-05 -0.00851273 0.0014959287 -0.006150567 0.015400338 -1.593577e-06 -1.6631341e-06 -0.0053337123

pool3.score_layer.weight f4 [128, 1]
00000000: ecf5 8b3d d323 a53a 829f 0a3b 9da3 e33d
00000010: 5ff8 86be 30ae 76be c6eb 593d 13d1 9039
00000020: ab51 32bc 14c1 4f3a 4990 813d 48b8 4f05
00000030: ca15 4931 ea7b 123e 2bf1 5580 6058 10a3
00000040: 9b79 3d34 d82b c139 519d 6837 e4ef 623b
00000050: af21 1ebd 8dde 5938 ab1f 963d a084 c43b
00000060: 9e9d 65bd f6c2 24be 2495 f084 61aa 4b06
00000070: 596c 773d b61a 14bc 47ae 3e2b b3e4 693c
00000080: 3a16 b53c 8e8f 5dbd c795 2eba 1868 40ba
00000090: 69cc 01ab 6858 973d 2dca 1bb6 2939 7534
000000a0: 1528 debb 5e12 853c b7f3 23b2 f15d 2e34
000000b0: 2edc 62b6 3820 323d 5a51 afaa dbde 6dac
000000c0: e6d8 1d01 1300 2f01 9e66 253e fbd2 af3c
000000d0: 8ce4 023d e49a 0d3e ef24 6335 567d 81bb
000000e0: 943e 82be 081d 9839 7f49 e13d acc4 27aa
000000f0: 2f72 8109 6b3f 18b1 cdcc ba3c 487e 8a3c
00000100: 7b95 2ea7 3922 82bd 8013 d110 ffa5 b3ae
00000110: cd85 003e 89bd 0026 88ca 1c3e 3dfe b13d
00000120: e285 eabd a3cd 99bd 73b2 4fb0 6ebe 9b3c
00000130: d805 8f0c 5d37 0eb1 e50a 2a8f e2e7 5f3c
00000140: e55f 853c 17b5 42b9 16b1 023e a150 0198
00000150: 5876 b73c 09e8 4235 25d9 63b4 d3e4 0c3c
00000160: 3428 4187 27b4 d898 669e 0bbe c32c 9fb9
00000170: f519 1e38 0b1b cd3c bbe2 5ab1 0e3d 4c24
00000180: d758 7db3 a336 062d d2ba 2534 8520 bfb5
00000190: ff58 993c 6532 35b2 d40d c63d 8704 af3c
000001a0: 0257 008a c93f 8235 0f59 8a3d 7a66 ea3b
000001b0: db8b 1289 93dc 52b9 dbfe 3fbd 3bdf 9835
000001c0: a166 98b0 f0a7 8b3c ce30 81be cb45 4f0b
000001d0: c91e 39bb 65ef 0380 b92f 0ab8 931e e03d
000001e0: beb3 4789 53cc 20b7 7a81 483d 99cb 993d
000001f0: b487 aa3c 2dae 111d 4d9b 0000 699d 4ca2
0.06834015 0.0012599177 0.0021152203 0.11115191 -0.26361367 -0.24089885 0.053203367 0.00027621593
-0.010883729 0.0007925194 0.06326348 9.76694e-36 2.9261735e-09 0.14305082 -7.892532e-39 -7.82497e-18
1.7646236e-07 0.00036844495 1.3864906e-05 0.003462785 -0.038606342 5.19441e-05 0.07330259 0.0059972554
-0.05605852 -0.16089997 -5.6560693e-36 3.830523e-35 0.060406063 -0.0090395715 6.774342e-13 0.014275718
0.022105325 -0.054091983 -0.0006659892 -0.000733973 -4.611368e-13 0.07389909 -2.3214482e-06 2.2838198e-07
-0.0067796805 0.01624411 -9.543263e-09 1.6239188e-07 -3.3804786e-06 0.043487757 -3.1142694e-13 -3.3803435e-12
2.8991963e-38 3.2142477e-38 0.16152427 0.021462908 0.03195624 0.13828617 8.4617835e-07 -0.003951709
-0.25438368 0.0002901333 0.110003464 -1.4900814e-13 3.1162998e-33 -2.215496e-09 0.022802735 0.016905919
-2.4228384e-15 -0.06354184 8.246601e-29 -8.1694644e-11 0.12551041 4.466579e-16 0.15311635 0.0869107
-0.11451317 -0.07509925 -7.5559753e-10 0.019011702 2.2036156e-31 -2.069519e-09 -8.383745e-30 0.013666125
0.016281078 -0.00018568743 0.12762865 -1.6713566e-24 0.022395298 7.260829e-07 -2.1220019e-07 0.008599478
-1.4531521e-34 -5.60166e-24 -0.13634643 -0.00030360193 3.769431e-05 0.02503731 -3.1852057e-09 4.4287164e-17
-5.8986952e-08 7.62915e-12 1.5434787e-07 -1.4240073e-06 0.018719194 -1.0547045e-08 0.09670606 0.021364463
-6.17934e-33 9.704319e-07 0.06755268 0.0071533294 -1.763987e-33 -0.00020109331 -0.04687391 1.1389851e-06
-1.1088624e-09 0.017047852 -0.25232548 3.9919256e-32 -0.002824711 -3.61385e-40 -3.294621e-05 0.109433316
-2.4038268e-33 -9.584316e-06 0.048951603 0.07509536 0.020816661 1.9280637e-21 5.5711e-41 -2.7730488e-18

lin1.weight f4 [128, 256]
00000000: 1df4 0080 8d8b 0080 cab0 0280 fa52 0180
00000010: ac8d 0e82 a388 0100 9ea2 0180 8ff9 0280
00000020: 3242 2401 5151 0a80 4b24 3e00 7754 0780
00000030: f35f 0000 d3db 0180 b075 0280 ccb0 0000
00000040: 9fe4 0000 eda1 4a80 1562 ce02 4bae 0480
00000050: e49e bd01 4d16 0080 a215 9703 1e31 0100
00000060: 25d5 2080 7663 0180 ba54 3603 cd61 0281
00000070: f6c1 0180 f739 0200 4e3b 4c86 6039 0100
00000080: 30e2 bf84 6824 0a80 c628 0280 a24d 6a86
00000090: 4e78 1300 eafe 0080 f5c1 1200 31b7 0000
000000a0: 41be 0000 7dcc 0100 66e0 0180 8a45 1100
000000b0: 7f2c 6c00 5b51 0100 c744 0000 7340 0380
000000c0: 2a04 9584 73bb 0a00 7018 0080 8366 a103
000000d0: ee42 0080 f718 0580 b060 0383 c5b4 0580
000000e0: afbe 0180 7687 0100 0ba4 4800 f59e 0380
000000f0: 860c 0200 6062 c281 d696 0400 4e2f 0100
00000100: 969c 0300 9f98 0100 0377 0980 df04 e900
00000110: b4dd 0180 f030 1480 bf43 0480 2928 a805
00000120: b1f2 0080 d113 0880 2597 8605 6265 0c00
00000130: 5d00 2706 b133 0080 102c 0100 2080 0080
00000140: bee6 0000 034b 2a82 5607 0700 4d8f 0380
00000150: 0e3d 2e00 bc55 0a80 2500 0080 f20f db01
00000160: b12a 0000 793d 2c02 8e7b 2600 d719 0080
00000170: 4b74 0000 bb8e 0780 5971 0180 11aa 2780
00000180: d300 0100 4441 0100 0e5e 0180 54b4 ed02
00000190: 8bc7 1e02 2192 a282 197b 0100 f57f 0080
000001a0: 736f 0000 6b2e 0180 0ec1 0380 f637 1180
000001b0: b354 0000 5c00 2c00 f8ba 1b00 2711 0e00
000001c0: 40af 0100 4751 7c01 9bdd 0480 0b66 1104
000001d0: dea4 0000 806d 0200 7801 2380 b015 0100
000001e0: d96e 0300 09b5 a403 314b 0080 9538 0080
000001f0: 4bf1 0180 927b 2780 b1d7 8b00 fcab 2f02
00000200: 0ab8 0000 8f14 0300 3ee7 0080 f456 0a85
00000210: ff7e 0180 378a 2600 1ebf 0900 b8f5 0180
00000220: 1476 8a04 b54c 0000 1f66 0280 03e9 1d00
00000230: fcc4 0200 f834 0700 d623 a885 c1f8 0100
00000240: dc4f 3d80 ba36 2300 bcac 2184 2b4d 0186
00000250: 1e2f 0180 d438 0000 cb19 2400 b94e 0100
00000260: 258d 7b02 4fc2 1380 6b32 a100 c1bf 0200
00000270: b41e 0100 275b 7600 cb98 0180 632c 0d80
00000280: 1a94 0700 b2a7 6a81 9e8f ab81 e1ff 2406
00000290: f369 0000 d28e 0580 f16b 1885 344f 0180
000002a0: 92f4 0000 e5e3 0380 0c22 0d80 4066 0f00
000002b0: 3a7e 0080 e1cc 0000 1fb8 0180 c11f 0080
000002c0: acb5 0684 89a5 0100 86bd 0080 8e70 0080
000002d0: 4e60 0200 20b8 0000 801f 0080 f8f6 0280
000002e0: 297b 2500 9c80 0180 6f55 6800 3408 0180
000002f0: 5b68 0000 00f2 0000 87d2 0200 18f9 0080
00000300: 4c67 0300 fa90 4106 1c5e 0180 a0fe 1200
00000310: a60c 1200 4815 4000 95f1 0000 0474 2480
00000320: ea5c 7282 a9e0 a180 69f9 0080 1ed5 1f80
00000330: 605a 0180 8876 0680 050f 0280 28d6 9a05
00000340: 8cc1 0080 31f8 bc84 2d1a 0480 0463 1f83
00000350: 5bd1 5d85 8d00 6603 de2b 0380 0615 0380
00000360: 6857 0180 e759 0400 aee2 0100 13ff 0100
00000370: cd26 0000 3839 0100 f0eb a905 5d3f 0100
00000380: 6652 0080 c1e1 1c00 32cb 0280 3cac 0d85
00000390: 1ad8 0000 adb6 8f00 f881 0100 20e4 0300
000003a0: 62c9 0200 601b 0180 af0e 0300 1157 0000
000003b0: d4eb 0000 cd98 0000 595b 0b80 f9b7 0100
000003c0: 342f a181 dfa6 9d81 ec57 0000 9ade 0380
000003d0: 459b 0180 b879 0380 f0ec 9600 ed1b 0080
000003e0: 04ba 1b04 1bf0 8781 6c55 9d01 24f1 1282
000003f0: 150a 0380 0fc3 0100 2713 1c00 29c2 0500
-8.7571e-41 -5.0061e-41 -2.47091e-40 -1.21602e-40 -1.047317e-37 1.40852e-40 -1.50172e-40 -2.73196e-40
3.0169536e-38 -9.47526e-40 5.70682e-39 -6.73149e-40 3.442e-41 -1.70694e-40 -2.2589e-40 6.3423e-41
8.2014e-41 -6.853915e-39 3.0325276e-37 -4.29867e-40 6.965563e-38 -8e-42 8.879949e-37 1.09455e-40
-3.015198e-39 -1.27515e-40 5.3582254e-37 -2.3947398e-38 -1.61416e-40 2.04465e-40 -3.8411706e-35 1.12418e-40
-4.5111605e-36 -9.31415e-40 -1.98298e-40 -4.4067544e-35 1.788032e-39 -9.1446e-41 1.722618e-39 6.5717e-41
6.825e-41 1.65192e-40 -1.72334e-40 1.58615e-39 9.934196e-39 1.2102e-40 2.4673e-41 -2.98627e-40
-3.5033556e-36 9.85599e-40 -8.767e-42 9.486265e-37 -2.401e-41 -4.68133e-40 -3.860843e-37 -5.24025e-40
-1.6024e-40 1.4043e-40 6.671003e-39 -3.3253e-40 1.88164e-40 -7.1405506e-38 4.21452e-40 1.08805e-40
3.31679e-40 1.46586e-40 -8.69213e-40 2.1399418e-38 -1.71368e-40 -1.854265e-39 -3.91645e-40 1.5813397e-35
-8.7061e-41 -7.41793e-40 1.2656821e-35 1.138395e-39 3.1409476e-35 -1.8543e-41 1.07642e-40 -4.5963e-41
8.2775e-41 -1.2511155e-37 6.4548e-40 -3.26913e-40 4.246335e-39 -9.4911e-40 -5.2e-44 8.0470775e-38
1.5315e-41 1.2654206e-37 3.534072e-39 -9.27e-42 4.1718e-41 -6.9405e-40 -1.32497e-40 -3.642593e-39
9.2131e-41 1.15248e-40 -1.25576e-40 3.4927523e-37 1.1665273e-37 -2.3887634e-37 1.35995e-40 -4.5902e-41
3.998e-41 -1.08487e-40 -3.44761e-40 -1.581278e-39 3.0384e-41 4.040891e-39 2.54663e-39 1.29185e-39
1.54703e-40 4.6343404e-38 -4.46839e-40 1.7091524e-36 5.9143e-41 2.22952e-40 -3.214769e-39 9.9616e-41
3.15271e-40 9.680617e-37 -2.6974e-41 -2.0298e-41 -1.78395e-40 -3.625913e-39 1.284251e-38 1.2906327e-37
6.6021e-41 2.82882e-40 -8.2954e-41 -6.5046996e-36 -1.37393e-40 3.539331e-39 8.9508e-40 -1.79983e-40
3.255208e-36 2.7517e-41 -2.20305e-40 2.746818e-39 2.54336e-40 6.6185e-40 -1.5811808e-35 1.81072e-40
-5.630613e-39 3.233875e-39 -1.9004775e-36 -2.4318897e-35 -1.08738e-40 2.0386e-41 3.31533e-39 1.20076e-40
1.8481074e-37 -1.814579e-39 1.4803601e-38 2.5246e-40 1.0285e-40 1.0869288e-38 -1.46647e-40 -1.209784e-39
6.95977e-40 -4.3099328e-38 -6.302156e-38 3.1032962e-35 3.8007e-41 -5.10412e-40 -7.166831e-36 -1.20248e-40
8.7735e-41 -3.5726e-40 -1.206075e-39 1.414213e-39 -4.5282e-41 7.3497e-41 -1.57886e-40 -1.1391e-41
-1.5835044e-36 1.51218e-40 -6.7988e-41 -4.0377e-41 2.18219e-40 6.6052e-41 -1.13e-41 -2.72267e-40
3.442095e-39 -1.37972e-40 9.58154e-39 -9.4778e-41 3.7436e-41 8.6813e-41 2.59194e-40 -8.9358e-41
3.12562e-40 3.6405778e-35 -1.25596e-40 1.744381e-39 1.657576e-39 5.885106e-39 8.6663e-41 -3.347696e-39
-1.7806017e-37 -1.4866108e-38 -8.9472e-41 -2.923352e-39 -1.24256e-40 -5.93534e-40 -1.89059e-40 1.4560759e-35
-6.9432e-41 -4.4426515e-36 -3.76732e-40 -4.6839565e-37 -1.04298226e-35 6.7591557e-37 -2.91243e-40 -2.83048e-40
-1.23191e-40 3.99593e-40 1.73153e-40 1.83339e-40 1.3919e-41 1.12362e-40 1.5979353e-35 1.14566e-40
-2.9559e-41 2.652379e-39 -2.56564e-40 -6.6614226e-36 7.7523e-41 1.3198008e-38 1.3846e-40 3.57342e-40
2.55914e-40 -1.01656e-40 2.80774e-40 3.1234e-41 8.4599e-41 5.4815e-41 -1.04296e-39 1.57832e-40
-5.920979e-38 -5.791214e-38 3.154e-41 -3.55361e-40 -1.47536e-40 -3.19171e-40 1.3860322e-38 -1.0018e-41
1.8305577e-36 -4.99357e-38 5.7795266e-38 -1.079559e-37 -2.79123e-40 1.6181e-40 2.578264e-39 5.28829e-40

lin1.bias f4 [128]
00000000: 026a c1ae b526 323d 9a0f 1c3c 3b21 3b3d
00000010: 3d82 d2bb 877f 103d 6b14 053d cd82 16b5
00000020: 9147 84ba ab6f 7a3d 7a3c 093d 2a48 e43c
00000030: 25c6 1239 0525 173c 6824 893c 9df0 c7bb
00000040: 94aa 443c 7092 083c 85a8 643c 8361 a53a
00000050: a941 d83c 100d 5e3b 17ee 393d f4c1 793b
00000060: 55b5 373d f204 083d a67b d53c 65c2 20b6
00000070: a5ba 0fbb 35e1 4bba 135f e63c af6c 7eb8
00000080: 6e6c 4c3d 871e ebbb c39d f1bb 3e21 a93a
00000090: 0e6a 0db1 f1c4 f03b a1fd 053c cc86 073d
000000a0: bc15 e73c ce05 82ba b311 00bc ef6f e73b
000000b0: 2e2a 0eb0 1a88 063d f273 91ab d5df 213d
000000c0: a65c 01a4 15f5 f03c f338 7d3d 07b0 9f3b
000000d0: bdd9 b93c a5ae dabb 965b ce3c 6621 af3c
000000e0: 05fe a0bc 786f aba0 1e9d 2e3d 04ce 65ba
000000f0: e1a6 243d 278e 1d3d 5eaf 923c 2b19 233c
00000100: 06b5 a63d 81c1 efb7 b90e 903c c354 253d
00000110: ed8c 46b0 7eb5 a43c fdbc d93c 2b80 b6b1
00000120: 7e06 413d fffb 1f3d a187 dc3b 7bc0 ed3c
00000130: 9a0f 73a0 24ab 183c cc3b 003d 18e3 a93c
00000140: 767f 053d facd efa4 2c2f 9e3b 9d94 20bc
00000150: 99af 7fb8 fad6 94bb d0b4 0abc 022b f8bb
00000160: 85a9 19b1 f201 023d 66b6 1c3d 51c5 c5b7
00000170: 0eb2 723a d33a 393c e609 82b9 8e70 b83c
00000180: 3977 3d3d bd8e 7dba 8eb1 ee3b 56ef 363c
00000190: f5f0 4fb2 3efc 6ab8 d8dd 4f3d b5e7 273d
000001a0: 9894 b9b8 591d 0e3c b8d8 ee3c 7a8e 0a3d
000001b0: 15e3 15b0 fad0 6eba 754f 07bc 0686 2b3c
000001c0: 0c33 1f3d 9d61 133d 7faf 24bb 84b5 60bc
000001d0: 8321 443d 036c a5b9 7faa b83c 040b 563d
000001e0: 252b 333d 8ac9 60b2 055a 11ae 5802 b73c
000001f0: c4c4 17bb b7d8 0f3b 8b1c f63b 5b49 bc3b
-8.7954546e-11 0.043493945 0.009525204 0.045685988 -0.006424217 0.03527787 0.032490175 -5.6069695e-07
-0.0010092129 0.06114165 0.03350494 0.027866442 0.0001399746 0.009225135 0.016740993 -0.0061016814
0.01200356 0.008335695 0.013956194 0.0012617562 0.026398497 0.0033882298 0.045393076 0.003810999
0.044850666 0.03320784 0.026059937 -2.395501e-06 -0.0021931317 -0.0007777394 0.028121507 -6.065954e-05
0.049908094 -0.00717527 -0.007373543 0.0012903584 -2.0578486e-09 0.007347696 0.008178146 0.033087537
0.028208606 -0.0009919943 -0.00781672 0.007062904 -5.171924e-10 0.03284464 -1.0335051e-12 0.039520103
-2.8050892e-17 0.02941374 0.06182189 0.004873279 0.022686834 -0.0066736513 0.025190156 0.02137823
-0.019652376 -2.904229e-19 0.042630307 -0.00087663555 0.04019821 0.038465645 0.017905887 0.009954731
0.08139996 -2.8581127e-05 0.017585145 0.04036404 -7.223225e-10 0.020106073 0.026579374 -5.311468e-09
0.047125332 0.03905868 0.0067300354 0.029022446 -2.0588063e-19 0.009318147 0.031307027 0.02073817
0.03259226 -1.03998666e-16 0.0048274007 -0.009801057 -6.0960276e-05 -0.0045422288 -0.008465961 -0.0075734863
-2.236079e-09 0.031740136 0.038259886 -2.3576113e-05 0.00092580996 0.011305529 -0.00024802907 0.022514608
0.046256278 -0.0009672454 0.0072843498 0.011165461 -1.2103773e-08 -5.6024866e-05 0.050748676 0.040992457
-8.849165e-05 0.008673989 0.029156074 0.033827282 -5.4528587e-10 -0.00091101194 -0.00825869 0.010468965
0.03886704 0.035981763 -0.0025129018 -0.013715152 0.04788352 -0.00031551727 0.022542236 0.0522566
0.043742318 -1.3084341e-08 -3.3049136e-11 0.022339985 -0.0023158053 0.002194924 0.007510727 0.0057460493
